ecobot-server/data.pth (torch, 6314 bytes, 6 tensors)

l1.weight f4 [8, 69]
0	0x3e621006	0.22076425
1	0x3eafd8e7	0.3434517
2	0x3f492074	0.78565145
3	0x3ec14d80	0.3775444
4	0x3f180ff5	0.5939935
5	0x3f345d2e	0.7045468
6	0xbed58c43	-0.41708574
7	0x3eeb4718	0.45952678
8	0x3f19bdea	0.6005541
9	0x3f24c7a8	0.6436715
10	0x3f09cac9	0.5382505
11	0x3eb71528	0.35758328
12	0x3e324d8f	0.17412399
13	0x3ee96343	0.45583543
14	0x3ea3c5b8	0.31986785
15	0xbe601352	-0.2188237
16	0x3e0459b7	0.12924848
17	0x3e2867a3	0.16445784
18	0x3ee119b6	0.43964928
19	0xbee9c400	-0.4565735
20	0xbec89a67	-0.391803
21	0x3f1cccff	0.612503
22	0x3e676c93	0.22600012
23	0x3f3871a0	0.7204838
24	0x3f70ac39	0.9401279
25	0x3eb2556c	0.34830797
26	0x3f138d65	0.57637626
27	0x3f293a96	0.6610502
28	0x3ea2794d	0.3173317
29	0xbec2c657	-0.38041946
30	0xbf3276f1	-0.6971274
31	0xbef4c714	-0.47808135
32	0xbee23744	-0.4418279
33	0x3e5d147a	0.21589842
34	0x3e6e3f76	0.23266396
35	0x3f36b5db	0.7137124
36	0xbc5888d1	-0.013216213
37	0x3e5e6cd9	0.2172121
38	0xbe8bb959	-0.27289847
39	0xbe469d6d	-0.1939599
40	0x3f1b21d1	0.60598475
41	0xbd540950	-0.051766694
42	0x3f40003b	0.7500035
43	0x3f1cadec	0.61202884
44	0x3ee11f6c	0.43969285
45	0x3ec02863	0.37530813
46	0x3ea8d763	0.32976827
47	0x3eaafa7d	0.33394232
48	0x3f233c12	0.63763535
49	0xbec5a333	-0.38601074
50	0xbf0ceb2e	-0.55046356
51	0x3da71edd	0.081601836
52	0x3e1ff388	0.15620244
53	0x3e9a086a	0.30084544
54	0x3eea4ecb	0.4576324
55	0x3c599956	0.013281187
56	0x3eb40291	0.35158208
57	0x3e6bc9ad	0.23026152
58	0x3e8731ab	0.2640508
59	0x3e97b819	0.29632643
60	0xbf3405bf	-0.7032127
61	0x3d6be30d	0.05758958
62	0x3e6ecf68	0.23321307
63	0x3e0463e8	0.12928736
64	0xbedef83d	-0.43548766
65	0x3e115150	0.14191175
66	0x3f19f8d0	0.6014528
67	0x3ef2aaa7	0.47395822
68	0x3eebf7fd	0.46087638
69	0x3eeaf085	0.45886627
70	0xbd85fd8c	-0.06542501
71	0x3f6c2ba7	0.9225411
72	0x3ea75eaa	0.3268941
73	0x3edea4a5	0.4348499
74	0x3e34f8f4	0.17673093
75	0xbf25c518	-0.64753866
76	0xbe5526a2	-0.20815518
77	0x3ef9992b	0.4874967
78	0x3ce0ce92	0.02744225
79	0x3f280d50	0.65645313
80	0x3f0523f9	0.52008015
81	0xbecf992f	-0.40546557
82	0xbe40fe3c	-0.18846983
83	0xbede10ea	-0.4337228
84	0xba3894a5	-0.0007041193
85	0xbe39bd97	-0.18138729
86	0xbeae172b	-0.3400205
87	0x3f086739	0.53282505
88	0xbf25c837	-0.6475863
89	0xbe5cce45	-0.2156306
90	0x3f31ceee	0.69456375
91	0x3eec78f1	0.4618602
92	0x3f328a00	0.6974182
93	0x3ee59cea	0.44846278
94	0x3e7d12d2	0.2471421
95	0xbbff832e	-0.0077976203
96	0x3f4184cf	0.75593275
97	0xbef3b0b5	-0.47595754
98	0xbebb733b	-0.3661135
99	0xbeb3b4fd	-0.3509902
100	0xbe818e75	-0.25304
101	0xbedcf911	-0.43158773
102	0xbe985215	-0.29750124
103	0x3eb99cda	0.3625248
104	0x3f395236	0.7239107
105	0xbcf1a46f	-0.029497353
106	0x3ebcb71b	0.36858448
107	0x3d8cffca	0.068847254
108	0x3e176f7d	0.14788623
109	0x3cc700e4	0.024292417
110	0x3ebf49e6	0.37361068
111	0x3e79460e	0.2434313
112	0x3e687cca	0.22703853
113	0xbe8429d0	-0.2581315
114	0x3e559c53	0.20860414
115	0x3efa28b9	0.48859194
116	0xbe70730f	-0.23481391
117	0x3d0804d3	0.033207726
118	0xbe96f131	-0.2948089
119	0xbf018df3	-0.5060722
120	0xbe86ac5b	-0.26303372
121	0xbdc9d8fb	-0.09855839
122	0x3ee9f923	0.4569789
123	0x3dcb515a	0.09927626
124	0xbe5cdf6b	-0.21569602
125	0x3f725c2d	0.946719
126	0x3ef19a12	0.4718786
127	0x3effdf56	0.4997508
128	0x3d6c4171	0.057679597
129	0xbf1d0e57	-0.61350006
130	0xbe4fc22c	-0.20288914
131	0x3ea43895	0.3207442
132	0x3f03fd02	0.51557934
133	0xbc8e6b09	-0.017385023
134	0x3ee3fb2b	0.44527563
135	0x3e2694e1	0.1626773
136	0x3e7fd8df	0.24985074
137	0xbe209c59	-0.15684642
138	0x3e7e7a4c	0.2485134
139	0x3e816f85	0.25280395
140	0x3f2d7318	0.67753744
141	0xbe619eba	-0.22033206
142	0x3cc465ff	0.023974417
143	0x3dc2dba7	0.095145516
144	0x3f3e373c	0.7430303
145	0x3eb47f4c	0.3525337
146	0x3effd81f	0.49969575
147	0x3f1d5b95	0.6146787
148	0x3f016d35	0.5055726
149	0xbd1946f4	-0.03742118
150	0x3ea88d82	0.32920462
151	0x3ea9fe19	0.33201674
152	0x3e881ae3	0.26583013
153	0xbe4bdf1f	-0.19909333
154	0x3eaa12d1	0.3321748
155	0x3e755ea4	0.23961884
156	0xbdf68c5d	-0.12038491
157	0x3f2d9800	0.6781006
158	0xbedde861	-0.43341354
159	0xbebd007d	-0.36914435
160	0x3e84a2bd	0.2590541
161	0xbec2dbd4	-0.3805834
162	0xbec50870	-0.38483
163	0xbec7873a	-0.38970357
164	0x3da1e590	0.07905114
165	0xbe48e7bc	-0.1961965
166	0xbf040c1f	-0.51580995
167	0x3ed2b730	0.41155386
168	0xbd681f04	-0.056670204
169	0x3f042878	0.5162425
170	0x3f0a570f	0.5403909
171	0x3e9a1a61	0.3009825
172	0x3d71b229	0.059007797
173	0x3f36e600	0.714447
174	0x3ef38e51	0.47569516
175	0xbc307afa	-0.010771507
176	0xbea423b8	-0.320585
177	0xbd82baf2	-0.06383313
178	0x3f38ee3d	0.7223852
179	0xbebffb79	-0.37496546
180	0x3ee4417e	0.44581217
181	0x3f0e4011	0.5556651
182	0xbeb041a9	-0.34425095
183	0xbe8b63f6	-0.27224702
184	0xbea6ae07	-0.32554647
185	0xbe8b0489	-0.27151898
186	0xbebe8b34	-0.3721558
187	0x3f321357	0.6956076
188	0xbf2fc91c	-0.68666244
189	0x3dfa6231	0.1222576
190	0x3ed7b148	0.42127442
191	0x3ca26efc	0.019828312
192	0x3f0c8d5f	0.54903215
193	0x3f071a01	0.52774054
194	0x3e8ec4b8	0.2788446
195	0x3e89fe6e	0.26951927
196	0x3d119088	0.035538226
197	0xbdc2b0de	-0.09506391
198	0xbeb0c4d9	-0.34525183
199	0xbf3b5cf5	-0.73188716
200	0x3e3ff285	0.18744858
201	0xbe7adf30	-0.24499202
202	0xbefbf17e	-0.4920768
203	0xbdfd1f48	-0.12359482
204	0x3eec5d2c	0.46164834
205	0x3ed71b1e	0.42012876
206	0xbdb10f22	-0.086454645
207	0xbe0609e0	-0.13089705
208	0xbf0f1387	-0.5588917
209	0x3e84d6d3	0.25945148
210	0xbecc673c	-0.39922512
211	0x3e2169c7	0.15763007
212	0x3ea6b1e2	0.3255759
213	0xbeb995b3	-0.36247024
214	0xbdf16804	-0.117874175
215	0xbe42c0bc	-0.19018835
216	0x3bc698d3	0.0060606985
217	0xbe15ab01	-0.14616014
218	0x3e80f795	0.2518889
219	0x3f2fa407	0.6860966
220	0x3f577a41	0.8417092
221	0x3f0c5285	0.54813415
222	0x3d1571ae	0.036485367
223	0xbe365cdb	-0.17808859
224	0x3f00fff9	0.50390583
225	0x3ebbb2ef	0.36659953
226	0xbebb2a3d	-0.36555663
227	0x3f1f0976	0.6212381
228	0x3ef986b4	0.48735583
229	0xbe00b638	-0.12569511
230	0x3ee3ad76	0.44468278
231	0x3eb593c8	0.3546431
232	0x3ebae761	0.36504653
233	0x3caf0ead	0.021369303
234	0xbe4219dc	-0.18955177
235	0x3f28c86a	0.6593081
236	0xbed52536	-0.41629952
237	0x3f12b8f4	0.57313466
238	0xbec02c79	-0.3753393
239	0xbe728fdd	-0.23687692
240	0x3ef2b120	0.4740076
241	0xbdc4a5ef	-0.09601962
242	0x3ec97db7	0.39353725
243	0xbe32ef3b	-0.17474072
244	0x3dce505d	0.10073922
245	0xbde876f4	-0.113508135
246	0x3ec08a60	0.37605572
247	0x3e112ef9	0.14178075
248	0xbed93ec7	-0.42430708
249	0x3e9a3256	0.30116528
250	0x3ea298fd	0.31757346
251	0xbe3ce99c	-0.1844849
252	0xbeb800ff	-0.3593826
253	0xbe5a22e9	-0.2130238
254	0xbde85472	-0.11344232
255	0xbf2103b9	-0.62896305

l1.bias f4 [8]
0	0x3f4146e8	0.7549882
1	0x3f25c786	0.64757574
2	0x3f30693e	0.68910587
3	0x3efc8cd0	0.4932618
4	0x3f218f73	0.6310951
5	0x3f6129ba	0.87954295
6	0x3ef366c3	0.47539338
7	0x3ef5736e	0.47939628

l2.weight f4 [8, 8]
0	0xbf062f7c	-0.52416205
1	0xbf900081	-1.1250154
2	0x3cc6da26	0.024273943
3	0x3f4cb889	0.7996908
4	0x3edba9de	0.42903036
5	0x3f71b6e7	0.9441971
6	0x3f88ffb1	1.0703031
7	0x3eb3ed63	0.3514205
8	0x3f921dcb	1.1415342
9	0x3e92e7ba	0.28692418
10	0x3f165ba3	0.58733577
11	0x3fa694f2	1.3014205
12	0xbf46827f	-0.7754287
13	0xbf4b0c71	-0.7931586
14	0x3f621677	0.8831553
15	0x3fbc3f66	1.4706848
16	0x3e288943	0.16458611
17	0xbc8b4f5b	-0.017005613
18	0xbea4ab4e	-0.32161945
19	0x3de7db6b	0.113211475
20	0xbc908b6b	-0.017644605
21	0xbe57cc59	-0.21074046
22	0x3cc25d5c	0.023726158
23	0xbde152e8	-0.11002141
24	0x3f87fe40	1.0624466
25	0x3f4c9b0d	0.7992409
26	0xbf4d4ce9	-0.8019548
27	0xbe58cdea	-0.211723
28	0x3e909a87	0.28242895
29	0x3f964fc3	1.1743091
30	0xbf5b19e9	-0.8558641
31	0x3df52504	0.11969951
32	0x3e88bcc9	0.26706532
33	0xbf41ff2a	-0.75779974
34	0x3f9b07ad	1.2111717
35	0xbedd7223	-0.43251142
36	0xbf20684e	-0.62659156
37	0xbe85b8cb	-0.26117548
38	0x3f31e155	0.69484454
39	0x3f426c12	0.7594615
40	0x3e25da11	0.16196467
41	0x3f1bd27c	0.6086805
42	0xbeb8b497	-0.3607528
43	0xbf80e173	-1.0068802
44	0x3f67c16c	0.90529513
45	0x3d88d00d	0.066803075
46	0x3e033bf1	0.12815835
47	0x3f8462f7	1.0342702
48	0xbdd89a52	-0.10576309
49	0xbcb22667	-0.021746827
50	0x3f6fd64b	0.9368636
51	0xbf8637e8	-1.0485811
52	0x3fad26cc	1.3527465
53	0x3e95f063	0.29284963
54	0x3f84bd49	1.0370265
55	0xbe795b73	-0.24351291
56	0x3f52b96b	0.82314175
57	0x3f8b2348	1.0870142
58	0x3f89da24	1.0769696
59	0x3ec82a28	0.39094663
60	0x3de09e3e	0.10967682
61	0x3f40b55f	0.7527675
62	0xbea30522	-0.31839854
63	0xbfb06527	-1.3780869

l2.bias f4 [8]
0	0x3d6a242b	0.0571634
1	0xba004c0b	-0.0004894144
2	0xbe9e5a9f	-0.30928513
3	0x3f3511ef	0.7073049
4	0x3eee3fe5	0.46533123
5	0xbe98ff2c	-0.2988218
6	0x3ec24457	0.37942764
7	0x3ed8705d	0.42273226

l3.weight f4 [10, 8]
0	0x3c9b0abc	0.018926017
1	0x3f3dff39	0.74217564
2	0xbe9133e6	-0.28359908
3	0xbfa7e5da	-1.311702
4	0x3f43b895	0.76453525
5	0xbf95adc3	-1.1693653
6	0xbfb84841	-1.439705
7	0xbfaad589	-1.3346416
8	0x3e43b5c5	0.19112308
9	0x3c32d195	0.010914226
10	0x3e7fb561	0.24971534
11	0xbf98c39d	-1.1934696
12	0x3f35e23f	0.7104835
13	0x3df53f86	0.11975007
14	0x3e50298c	0.20328349
15	0xbfe27a28	-1.7693529
16	0x3ebf948b	0.37418017
17	0xbf91d013	-1.1391624
18	0x3d6fa404	0.058506027
19	0xbf2382d9	-0.6387153
20	0x3f23edf0	0.6403494
21	0xbf9a18ba	-1.2038796
22	0x3f4f73b4	0.81035924
23	0xbcbf0e40	-0.023322225
24	0xbf5cb9ca	-0.8622099
25	0xbea2ec11	-0.3182073
26	0xbd66f6c5	-0.05638768
27	0x3f7eacd9	0.99482495
28	0xbf917396	-1.1363399
29	0xbfbb96a6	-1.4655349
30	0xbfc0cf4a	-1.506326
31	0x3f29f728	0.66392756
32	0x3f48732b	0.7830073
33	0x3ed003eb	0.4062799
34	0xbde7c85e	-0.11317514
35	0xbeafb6de	-0.34319204
36	0xbf56f974	-0.83974385
37	0xbfa478e3	-1.2849392
38	0xbf35f6a3	-0.7107946
39	0xbf21fd1a	-0.6327683
40	0xbfc011a3	-1.5005382
41	0x3e59ba97	0.21262585
42	0xbe10b265	-0.14130552
43	0xbd869743	-0.0657182
44	0xbfc85767	-1.5651673
45	0x3f43d027	0.7648949
46	0x3e25494e	0.16141245
47	0xbf3df428	-0.7420068
48	0x3f381a2a	0.71914923
49	0xbf88847d	-1.0665432
50	0xbec3db85	-0.38253418
51	0x3bfef0ed	0.0077801854
52	0xbf904f88	-1.1274271
53	0x3f0fb906	0.561417
54	0x3ed627b3	0.41827163
55	0xbfdf2b6b	-1.7435125
56	0xbf2d14cd	-0.67609864
57	0x3f186435	0.59527904
58	0x3c5bffa5	0.01342765
59	0xbedb1240	-0.4278736
60	0x3cd07ea7	0.025451018
61	0xbf1f2e3e	-0.62179935
62	0xbe4eb85b	-0.20187514
63	0xbdf575c8	-0.119853556
64	0xbf9e41fe	-1.2363889
65	0x3ebef442	0.3729573
66	0xbe5c6099	-0.21521224
67	0x3ef055d4	0.46940482
68	0x3ea850db	0.32874188
69	0x3edcaeec	0.43102205
70	0xbfdb9887	-1.7155923
71	0xbfbabb39	-1.4588386
72	0xbfb26788	-1.3937845
73	0xbfcdd814	-1.6081567
74	0xbe553919	-0.20822562
75	0x3ec7d48e	0.39029354
76	0xbfafa4ab	-1.3722128
77	0x3e033fdd	0.1281733
78	0x3ef979da	0.48725778
79	0x3eb6fc37	0.357393

l3.bias f4 [10]
0	0xbe7c4e1c	-0.24639171
1	0xbecce1cd	-0.40016022
2	0xbd92e21a	-0.07172032
3	0x3ede6eb9	0.4344385
4	0xbb35c12e	-0.0027733552
5	0x3e003691	0.12520815
6	0xbe9f1382	-0.3106957
7	0xbe848339	-0.25881365
8	0x3c1427ad	0.009042663
9	0xbd0d26da	-0.03446088
